policy_net_py/policy_train_1.pt (torch_old, 355055 bytes, 8 tensors)

conv.weight f4 [30, 1, 3, 3]
0	0xbc04ea12	-0.008112447
1	0xbc34daf4	-0.011038531
2	0x3c213cd2	0.009841161
3	0xbc9075d3	-0.017634308
4	0x3c969abc	0.01838433
5	0x3ba9dcc2	0.005183787
6	0xbb02034b	-0.0019838389
7	0x3c378db7	0.011203221
8	0x3b95f9ee	0.004576913
9	0x39cb17e5	0.0003873698
10	0x3c143e00	0.009047985
11	0xbc4985ad	-0.012299937
12	0x3c5d697b	0.013513918
13	0x3b2f936d	0.0026790753
14	0xbb7cab2c	-0.0038554175
15	0xbcb6e2f3	-0.022325015
16	0xbc6550f7	-0.013996354
17	0xbc2c17c6	-0.010503715
18	0x3aff2724	0.0019466621
19	0x3c638653	0.013887006
20	0x3ae2deae	0.0017308795
21	0xbb45d1b1	-0.00301848
22	0x3bcdab7a	0.006276545
23	0xbca8b725	-0.020595143
24	0xba5121f7	-0.00079777784
25	0x3ca17e1d	0.019713456
26	0xbce4ced4	-0.027930655
27	0xbcd17633	-0.025569057
28	0xbdc04997	-0.09389036
29	0xbd815328	-0.06314689
30	0xbd2f5e58	-0.042814583
31	0xbdac6dfc	-0.08419415
32	0xbd01a923	-0.031655442
33	0xbcda8f8e	-0.02667978
34	0xbd3c8113	-0.046021532
35	0xbcfff9b5	-0.031247
36	0x3bda9c20	0.0066714436
37	0xbba8e5aa	-0.005154331
38	0x3b5bb9df	0.0033527536
39	0x3b872813	0.0041246503
40	0x3df966af	0.121777885
41	0x3cbfbcc8	0.023405448
42	0x3c8c5584	0.01713062
43	0x3b90dad4	0.0044206176
44	0xbb1d4c34	-0.002400172
45	0xbc559a23	-0.013037237
46	0x3ddc4f30	0.10757291
47	0xbd107b44	-0.035273805
48	0xbc8fd5ad	-0.017557943
49	0x3bb932f4	0.005651826
50	0xbc898030	-0.016784757
51	0xbbff55a3	-0.007792191
52	0xbc62334c	-0.013806175
53	0xbba75075	-0.005106027
54	0x3c5606c7	0.013063139
55	0xbce5a09e	-0.02803069
56	0xbcbb434f	-0.022859244
57	0xbcc3c982	-0.023899797
58	0x3c92ee2c	0.017935835
59	0xbd791fad	-0.060821224
60	0xbc654d12	-0.013995426
61	0xbda1b521	-0.07895876
62	0xbc3c6b5c	-0.011500206
63	0x3c1324d6	0.00898095
64	0xbb66ae15	-0.0035198976
65	0xbc062555	-0.008187612
66	0x3b52d26f	0.0032168885
67	0xbc254227	-0.010086573
68	0x3ace68bb	0.0015747765
69	0x3de5ad5e	0.11214708
70	0xbac25e81	-0.001482919
71	0xbbeefd2a	-0.007293363
72	0xbc2cf148	-0.010555573
73	0xbcc623d1	-0.024187
74	0x3c268fc8	0.010166116
75	0xbc82046d	-0.015871251
76	0xbc3eafa2	-0.011638554
77	0xbc683acc	-0.0141741745
78	0xbc8563c9	-0.016282933
79	0xbc360664	-0.011109922
80	0x3d95569b	0.07291909
81	0x3b19142a	0.0023357966
82	0x3c2bb4b6	0.010480097
83	0xbc5c20bc	-0.013435539
84	0xbb68870d	-0.0035480887
85	0x3c7ab0e4	0.015300963
86	0xbc21a1a2	-0.009865196
87	0xbd762625	-0.06009497
88	0x3c7db239	0.015484386
89	0xbd266cd3	-0.040631127
90	0x3b5e73af	0.0033943465
91	0x3bacc9c2	0.005273075
92	0xbab83b75	-0.0014055806
93	0x3b262238	0.0025349986
94	0xbb749173	-0.003731814
95	0xbc7b0034	-0.015319873
96	0x3bb4fe1e	0.005523457
97	0x3b675108	0.00352961
98	0xbda633b7	-0.081153326
99	0x3c9d8edb	0.019233158
100	0x3b863cc0	0.0040965974
101	0xbce59c72	-0.0280287
102	0xbc444527	-0.011979378
103	0xbcf00e0c	-0.029303573
104	0xbc6c0073	-0.014404404
105	0xbc531324	-0.012882981
106	0xbabcc9d5	-0.0014403412
107	0xbd0c9a8b	-0.03432707
108	0xbbcbaec3	-0.0062159016
109	0x3b7fb455	0.0039017398
110	0x3bbb4456	0.0057149334
111	0x3c23dcde	0.010001389
112	0xbbc071ab	-0.0058729253
113	0x3c3c5b26	0.011496341
114	0xbd78daf4	-0.060755685
115	0x3cc0ead5	0.023549477
116	0x3cc160d6	0.023605745
117	0xbc48d4a8	-0.012257732
118	0x3bb0581d	0.0053815977
119	0x3da63315	0.08115212
120	0xbbab5eb1	-0.005229794
121	0xbbbe5638	-0.005808618
122	0xbc448a70	-0.011995897
123	0xbc275edc	-0.010215487
124	0xbc5d0e04	-0.013492111
125	0xbc19f5f0	-0.009397015
126	0x3b1eeaa7	0.002424875
127	0xba4f78d7	-0.000791443
128	0x3b3e8e65	0.0029076573
129	0x3841da76	4.6218243e-05
130	0xbb825683	-0.003977598
131	0xbb1ec1d7	-0.0024224424
132	0xbb355504	-0.0027669081
133	0x353e8ccc	7.09854e-07
134	0xbab2b174	-0.0013633207
135	0x3d04a86b	0.03238718
136	0x3d8d67dc	0.06904575
137	0x3d1a7484	0.037708774
138	0x3d38ac7c	0.04508637
139	0x3dcea008	0.10089117
140	0x3d934eb4	0.07192746
141	0x3ca0bb71	0.019620629
142	0x3d46fe33	0.048582267
143	0x3d497452	0.049183197
144	0xbc768db4	-0.015048433
145	0x3c1ddd0a	0.009635219
146	0xbcca41ce	-0.024689581
147	0x3b2c9f5d	0.0026340105
148	0xba37e65d	-0.0007015223
149	0xbdc02c20	-0.09383416
150	0x3b5d13d4	0.0033733742
151	0xbb26bba5	-0.0025441435
152	0xbc417d86	-0.011809712
153	0xbdc24c21	-0.09487177
154	0x3bc56008	0.0060234107
155	0xba426eff	-0.00074170524
156	0x3c4cec9e	0.012507586
157	0xba53581d	-0.0008062141
158	0x3bd10c7f	0.0063796635
159	0xbc3c58e5	-0.0114958035
160	0xbc23ce89	-0.009997972
161	0x3b25bff4	0.0025291415
162	0xbb652941	-0.0034967216
163	0xbc686ad8	-0.01418563
164	0xbc738fd2	-0.014865832
165	0xba4867a7	-0.000764484
166	0xbc4b2347	-0.0123985475
167	0xbd0afd3a	-0.033932902
168	0xbd2a818c	-0.04162745
169	0xbcd5b30b	-0.02608635
170	0x3a6b241f	0.0008969921
171	0x3c26b381	0.010174633
172	0x3bf92c3a	0.007604149
173	0x3c8464ff	0.01616144
174	0xbbd621cc	-0.0065347906
175	0x3c4b51c4	0.012409631
176	0x3cc7d592	0.02439383
177	0x3cc159c0	0.023602366
178	0x3ce47456	0.027887505
179	0x3cf359fc	0.029705994
180	0xbc971a65	-0.018445203
181	0xbd0fe45f	-0.0351299
182	0xbc2d7bf2	-0.010588633
183	0xbd8e89e4	-0.06959894
184	0xbd7f902e	-0.06239336
185	0xbd53bd4d	-0.051694203
186	0xbd42dffa	-0.047576882
187	0xbdc97987	-0.098376326
188	0xbd462f6c	-0.04838507
189	0x3b32854f	0.0027240103
190	0xbdb50374	-0.08838549
191	0x3cf9ccc4	0.030493148
192	0x3c16f99b	0.009214784
193	0xbbf02e13	-0.007329711
194	0xbc528e5f	-0.012851327
195	0xbb3e9178	-0.0029078405
196	0x3c6a2448	0.014290877
197	0x3bfd6a78	0.0077336393
198	0x3c845418	0.01615338
199	0x3c86b0e7	0.016441775
200	0x3c74de14	0.014945526
201	0x3c30c7d2	0.010789828
202	0x3c4ee666	0.012628173
203	0x3bb4c792	0.0055169547
204	0xbc88ebc4	-0.016713984
205	0x3d075e27	0.033048775
206	0x3c977ae0	0.018491209
207	0x3c21fbce	0.009886695
208	0xbb935466	-0.004496145
209	0x3c7d4d67	0.015460349
210	0xbbb7a048	-0.005603824
211	0x3ab8e116	0.0014105167
212	0x3c74e1ac	0.0149463825
213	0xbcbe55a5	-0.023234198
214	0x3b5efd53	0.0034025505
215	0xbba86e92	-0.005140134
216	0xbc82eb72	-0.01598141
217	0x3d178421	0.036991242
218	0xbd8bf0c2	-0.0683303
219	0xbb71c01a	-0.0036888183
220	0xbc9eae7f	-0.019370316
221	0x3d85e9e0	0.06538749
222	0xbb01e5ca	-0.0019820803
223	0x3c72061e	0.014771966
224	0xbc9faf7b	-0.019492855
225	0x3cbae5f3	0.022814726
226	0x3c37f29e	0.011227278
227	0x3cae60cb	0.021286389
228	0x3d5b6bac	0.05356948
229	0x3d26ee47	0.040754583
230	0x3c691221	0.014225514
231	0x3d409948	0.04702118
232	0x3d5ee1bf	0.054414507
233	0x3d0bd20e	0.03413587
234	0x3d10fabb	0.035395365
235	0x3d416dcb	0.047223847
236	0x3aa6d62a	0.0012728621
237	0x3d794901	0.060860638
238	0x3d1d6656	0.038427673
239	0xbaffd0a1	-0.0019517132
240	0xbbf349d1	-0.007424571
241	0xba198f3b	-0.000585783
242	0xbc3ad663	-0.011403653
243	0xbc363c7d	-0.01112282
244	0x3c2d07c9	0.010560938
245	0x3c053062	0.008129211
246	0x3c775d1b	0.015097882
247	0xbdd61169	-0.104525395
248	0x3ce8948c	0.028391145
249	0xb9a1aa3e	-0.00030835153
250	0x3cbaa2e1	0.022782745
251	0xbbde7848	-0.006789241
252	0x3be6b283	0.007040323
253	0x3c708be7	0.014681793
254	0xbcac5080	-0.02103448
255	0xbc62dec2	-0.013847055

conv.bias f4 [30]
0	0xc0abb5a0	-5.365921
1	0xc07ce1b2	-3.9512753
2	0xc0b6d190	-5.7130814
3	0xc09ef762	-4.967698
4	0xbe9b6668	-0.30351567
5	0xbfea8368	-1.8321352
6	0xbd1d28f9	-0.038369153
7	0xc093ecb0	-4.6226425
8	0xc0b44b47	-5.634189
9	0xc085193d	-4.159331
10	0xc03fde30	-2.9979362
11	0xc0b7e499	-5.746655
12	0xc089820d	-4.2971253
13	0xc084dac9	-4.151707
14	0xc0898fff	-4.2988276
15	0xc08f3c97	-4.476146
16	0xc076abbd	-3.854232
17	0xc08b53c8	-4.353977
18	0xc0ac7520	-5.3892975
19	0xc0b1bd4b	-5.554357
20	0xc0b7eca2	-5.747636
21	0xc05140d3	-3.2695816
22	0xc0b5f9c0	-5.686737
23	0xc097cda5	-4.743853
24	0xc0883176	-4.2560377
25	0xc0aeab70	-5.4584274
26	0xc04804bb	-3.1252887
27	0xbf2dd9b3	-0.6791031
28	0xc0b0a548	-5.520176
29	0xc0a1952f	-5.049461

l1.weight f4 [200, 270]
0	0xbe2cd6ce	-0.16878816
1	0xbd4a330a	-0.04936508
2	0x3e030547	0.12794982
3	0x3d672a4e	0.05643683
4	0xbd49939a	-0.04921303
5	0x3e1f805b	0.15576307
6	0xbe39ef65	-0.18157728
7	0xbe2be6f6	-0.16787323
8	0x3dbc254b	0.091868006
9	0x3d718a17	0.058969583
10	0xbde46f9e	-0.11154102
11	0x3dd63354	0.10459009
12	0xbc208282	-0.0097967405
13	0x3ae74663	0.0017644878
14	0xbbfbfc62	-0.0076899985
15	0xbdac9b2b	-0.084280334
16	0xbd89537d	-0.06705377
17	0xbe2216c3	-0.15828995
18	0xbe1daafb	-0.15397255
19	0xbe05a2af	-0.1305034
20	0xbd87c036	-0.06628458
21	0xbdde12d6	-0.108434364
22	0xbdee5afd	-0.116384484
23	0x3deaec8f	0.11470901
24	0xbe166999	-0.1468872
25	0xbe1cb675	-0.15303977
26	0xbe2239df	-0.15842389
27	0x3cc03c98	0.023466393
28	0xbd4931c2	-0.04911972
29	0x3c8d7b1c	0.017270617
30	0xbd861d8b	-0.065486036
31	0xbe5fb420	-0.21846056
32	0xbdf43142	-0.11923458
33	0x3d6d84ab	0.05798785
34	0x3da21c2a	0.07915528
35	0xbd9ae918	-0.0756399
36	0xbdab80c6	-0.08374171
37	0xbbe20093	-0.006897041
38	0xbd270ead	-0.04078548
39	0xbcd76314	-0.026292361
40	0xbdc5742b	-0.09641298
41	0xbd516eb2	-0.051130958
42	0xbde8542e	-0.11344181
43	0xbe2147e9	-0.15750088
44	0xbe9998c9	-0.29999378
45	0xbbdc192d	-0.0067168684
46	0x3e1665fa	0.14687338
47	0x3df0788c	0.117417425
48	0xbe2f12d6	-0.17097029
49	0xbe7efbdc	-0.24900764
50	0xbd2730a5	-0.040817875
51	0xbd98199d	-0.0742676
52	0xbd5ecd85	-0.054395217
53	0xbdad9635	-0.08475915
54	0xbe12285b	-0.14273207
55	0x3c3c485d	0.011491862
56	0xbdcde7c7	-0.10053974
57	0xbde670c1	-0.11251975
58	0xbdab65ec	-0.083690494
59	0xbd117f62	-0.035521872
60	0xbe05a24c	-0.13050193
61	0xbe0cfbf5	-0.13767989
62	0xbe194284	-0.1496678
63	0xbdef4b3a	-0.1168427
64	0xbd9822b3	-0.07428493
65	0xbd9bc9f0	-0.07606876
66	0xbcf7e135	-0.030258754
67	0xbd89d6de	-0.06730436
68	0xbe069474	-0.13142568
69	0xbcbdefd7	-0.023185654
70	0xbe18be21	-0.14916278
71	0xbdb3cfe1	-0.08779884
72	0xbdd25ffe	-0.10272215
73	0xbd98368f	-0.07432281
74	0x3e81a7f1	0.25323442
75	0xbd96bc54	-0.073601395
76	0xbddc8f24	-0.107694894
77	0x3dbaccec	0.09121117
78	0xbd1c1b08	-0.038111717
79	0xbde26fd1	-0.110564835
80	0xbc5decd4	-0.013545234
81	0xbdd24f37	-0.10269015
82	0xbe031b74	-0.12803441
83	0xbbfaaa7e	-0.007649719
84	0xbde89ba9	-0.11357815
85	0xbe326598	-0.17421567
86	0xbd8f83ad	-0.07007537
87	0x3d37066a	0.04468385
88	0xbd702202	-0.058626182
89	0x3de6c706	0.112684295
90	0xbddccd90	-0.107813954
91	0xbd2dc107	-0.042420413
92	0xbb94ff31	-0.0045470227
93	0x3bc886f0	0.0061196014
94	0xbdafd5e8	-0.08585721
95	0x3e28c80b	0.1648256
96	0x3e08aaf1	0.13346459
97	0x3d927f68	0.07153207
98	0xbe994d2c	-0.2994169
99	0xbd446987	-0.0479522
100	0x3cd85251	0.026406439
101	0x3e27ec9c	0.16398853
102	0xbd61822d	-0.055055786
103	0xbe1d4f87	-0.15362369
104	0x3dda0bd8	0.1064679
105	0xbcc75895	-0.024334231
106	0xbe468dbb	-0.19390003
107	0x3d7e451b	0.062077623
108	0xbe21673b	-0.15762036
109	0xbd5c2127	-0.053742554
110	0xbb4f7ec2	-0.0031661247
111	0xbdc96812	-0.09834303
112	0xbdb7df66	-0.08978157
113	0xbe830c3e	-0.25595278
114	0xbe1f7659	-0.1557249
115	0xbd959c4f	-0.07305204
116	0xbdfc7287	-0.12326532
117	0xbd291e53	-0.041288685
118	0x3e76f91b	0.24118464
119	0x3e91ddf8	0.2848966
120	0xbe27201c	-0.16320843
121	0xbdecc1ae	-0.11560379
122	0x3eb43b86	0.35201663
123	0xbdabb640	-0.08384371
124	0xbe3edf6e	-0.18639919
125	0x3da606f4	0.08106795
126	0xbd0ed5a5	-0.034871716
127	0xbda9aeb6	-0.082852766
128	0xbd933d22	-0.071893945
129	0xbdf9d0a1	-0.12197996
130	0xbc096bf8	-0.008387558
131	0xbda638f5	-0.081163324
132	0x3c4d1def	0.012519344
133	0xbc478293	-0.012177127
134	0xbd6c09ff	-0.05762672
135	0xbd2fdbce	-0.04293423
136	0x3dca4af0	0.098775744
137	0x3d634cd2	0.055493183
138	0xbe02ee0a	-0.12786117
139	0xbdf1d8c7	-0.11808925
140	0x3de5065d	0.11182854
141	0xbdb54db4	-0.08852711
142	0xbd18fb27	-0.037348893
143	0xbdade8e2	-0.084916845
144	0x3c095e1b	0.008384253
145	0xbe0dd106	-0.13849267
146	0x3c29ed20	0.010371476
147	0xbdb42dc4	-0.087977916
148	0xbd94fc33	-0.07274666
149	0xbd7f65ab	-0.062352818
150	0xbdd863e6	-0.10565929
151	0xbe22bc54	-0.15892154
152	0x3c0ef813	0.008726138
153	0x3e13f4de	0.14448878
154	0xbd254e32	-0.040357776
155	0x3d3d6516	0.04623898
156	0x3df1fb4b	0.118155085
157	0xbe37c5c3	-0.17946534
158	0xbdadef0b	-0.084928595
159	0x3d4fad56	0.050702415
160	0xbd9516a1	-0.07279707
161	0xbe1b6bc8	-0.15177834
162	0x3d621825	0.055198807
163	0x3d472f63	0.048629176
164	0xbe1a51ed	-0.15070315
165	0x3b8a5d41	0.0042225425
166	0xbd2b3438	-0.041797847
167	0x3dc03c33	0.09386482
168	0x3da474b2	0.0803007
169	0xbc9b0be7	-0.018926574
170	0xbe14db9d	-0.14536901
171	0xbc4f53e2	-0.012654277
172	0x3e124081	0.14282419
173	0xbd9568ef	-0.07295405
174	0xbde3e2d6	-0.1112725
175	0xbd9f5359	-0.07779569
176	0xbe088cb4	-0.13334924
177	0x3cdf3f96	0.027252
178	0xbe038256	-0.12842688
179	0xbe06f247	-0.13178359
180	0x3dc0b8e6	0.094102666
181	0xbe072225	-0.13196619
182	0x3a7df9f1	0.0009688428
183	0xbd9ef224	-0.077610284
184	0xbdea3413	-0.114357136
185	0xbd0aa8f8	-0.033852547
186	0x3d5d1949	0.053979192
187	0x3da4ddd6	0.08050124
188	0xbd80027c	-0.06250474
189	0xbd272892	-0.040810175
190	0x3e32b344	0.17451197
191	0x3ea7938c	0.32729757
192	0xbdaa8126	-0.08325414
193	0xbdb1a82e	-0.08674656
194	0xbdf347dd	-0.11878941
195	0xbd567784	-0.052360073
196	0xbe370953	-0.1787465
197	0xbe29fa9f	-0.1659951
198	0xbe12419f	-0.14282845
199	0xbe35ad59	-0.17741908
200	0xbdc82740	-0.09773111
201	0xbd8a698b	-0.06758412
202	0xbd04a003	-0.03237916
203	0xbdbec880	-0.09315586
204	0xbde694d9	-0.11258859
205	0xbd5ff373	-0.05467553
206	0xbd8096b5	-0.06278745
207	0xbdcac1df	-0.09900259
208	0x3d46eb57	0.04856428
209	0xbddeef78	-0.10885519
210	0xbdc9a0d2	-0.09845127
211	0xbe416aa1	-0.18888332
212	0xbd01b981	-0.03167105
213	0xbd321d7b	-0.043485146
214	0x3c2b31c6	0.010448879
215	0xbe62dee6	-0.22155342
216	0xbd9c8dea	-0.076442555
217	0xbc4c6045	-0.012474124
218	0xbd01a2f9	-0.031649563
219	0xbe22a78d	-0.15884228
220	0xbd2dd875	-0.042442758
221	0x3d6e0a70	0.058115423
222	0xbdd7cb4c	-0.10536823
223	0xbe40e73a	-0.18838206
224	0xbad6a472	-0.0016375913
225	0xbda75af5	-0.081716456
226	0xbcec17d3	-0.028819954
227	0xbab3dfa2	-0.0013723264
228	0x3c28f0dd	0.0103113325
229	0xbdccf518	-0.100076854
230	0xbd76571c	-0.060141668
231	0xbc8b4f95	-0.017005721
232	0xbddfddc3	-0.109309696
233	0xbe31c634	-0.17360765
234	0xbe166e78	-0.14690578
235	0x3d14c791	0.036323134
236	0x3dea183d	0.11430404
237	0xbdb49506	-0.088174865
238	0xbd0fb3a9	-0.035083447
239	0xbcdf9d9a	-0.02729683
240	0x3d9632ce	0.07333909
241	0xbe36740b	-0.17817704
242	0xbe50f8fa	-0.20407477
243	0xbe3be687	-0.18349658
244	0xbd42b25f	-0.04753339
245	0x3ccd4dea	0.025061566
246	0xbda2b3cf	-0.07944452
247	0xbe2f1699	-0.17098464
248	0xbe2c1e6f	-0.16808484
249	0x3dae6ada	0.08516474
250	0xbdd106be	-0.10206364
251	0xbe91578a	-0.283871
252	0xbdff3329	-0.1246093
253	0x3d2af762	0.04173983
254	0xbdd2daa1	-0.102956064
255	0xbdbb99c8	-0.09160191

l1.bias f4 [200]
0	0xbf1d0bfa	-0.613464
1	0xbdb2f548	-0.0873819
2	0xbdafea76	-0.08589642
3	0xbd9ddba3	-0.07707908
4	0x3f764490	0.9619837
5	0xbe1ac6f4	-0.15114957
6	0xbc8c2c64	-0.01711101
7	0xbd5b81f2	-0.053590722
8	0xbd04595e	-0.03231179
9	0xbd033d60	-0.032040954
10	0x3e476f0f	0.19475959
11	0xc038ff14	-2.8905687
12	0xbd235a95	-0.039881308
13	0xbdc460e3	-0.09588792
14	0xbd2290d5	-0.039688904
15	0xbd9f1b43	-0.07768872
16	0xbd936576	-0.071970865
17	0xbc91a223	-0.017777508
18	0xbe28ddce	-0.16490862
19	0xbd9d891c	-0.07692167
20	0xbebe1c7d	-0.3713111
21	0xbdc97436	-0.098366186
22	0xbd1c97e1	-0.03823078
23	0x3b94d9e4	0.004542576
24	0xbe0e4cfb	-0.13896553
25	0xbd8b404c	-0.06799373
26	0xbd6c3850	-0.05767089
27	0xbd8b0039	-0.06787152
28	0xbcc1df94	-0.02366618
29	0xbd9380c4	-0.072022945
30	0xbe2c851d	-0.16847654
31	0xbdcc0b29	-0.09963066
32	0x3f755797	0.95836776
33	0x3d7c0920	0.06153214
34	0xbdc5e46c	-0.09662709
35	0xbe295216	-0.1653522
36	0xbc180e80	-0.009280801
37	0x3f01c30b	0.50688237
38	0xbc53438a	-0.012894521
39	0xbe12f1be	-0.1435003
40	0xbd6c5913	-0.057702135
41	0xbd3ed3aa	-0.046588577
42	0xbc64ac3b	-0.013957079
43	0x3c0a50b8	0.008442096
44	0xbd33cb85	-0.043895263
45	0xbdc745b7	-0.09730094
46	0xbd4abaf9	-0.049494717
47	0xbd372b72	-0.044719167
48	0xbc2ce1cc	-0.010551881
49	0xbd1d1f1e	-0.038359754
50	0xbd443c86	-0.047909282
51	0xbd1d24fb	-0.038365345
52	0xbe065e11	-0.13121821
53	0xbe16a995	-0.14713128
54	0x3e3b7a60	0.18308401
55	0xbd824c4c	-0.06362209
56	0x3e9515cd	0.29118195
57	0xbb142aa4	-0.0022608424
58	0xbc6cbc6e	-0.014449222
59	0xbdad39ac	-0.08458266
60	0xbd11306f	-0.03544658
61	0xbe331a6a	-0.17490545
62	0xbd2bfb43	-0.04198767
63	0xbc4ce277	-0.012505165
64	0x3ea260c2	0.31714445
65	0xbcc4c79a	-0.024020959
66	0xbea2df4f	-0.31810996
67	0xbd14045a	-0.036136962
68	0xbe6e8043	-0.23291115
69	0xbdad993f	-0.08476495
70	0xbd558294	-0.052126482
71	0xbd1b466d	-0.03790896
72	0x3e93ee41	0.2889271
73	0xbd452668	-0.04813233
74	0x3e8dba5f	0.27681252
75	0xbdcc7898	-0.09983939
76	0xbc019dde	-0.007911174
77	0x3e907495	0.28213945
78	0xbdbb94ae	-0.09159218
79	0x3ea5fd81	0.3241997
80	0xbcfa79a6	-0.030575585
81	0xbe01cd0d	-0.12675877
82	0xbd8c3aab	-0.068471275
83	0x3e4f4c17	0.2024387
84	0xbd9fb2b5	-0.077977575
85	0xbdf64b2e	-0.12026058
86	0xbcead6ef	-0.028666941
87	0x3d446ef3	0.047957372
88	0xbdccb0fb	-0.09994694
89	0xbd300d37	-0.042981353
90	0xbbe24769	-0.0069054854
91	0xbd8d5079	-0.069001146
92	0xbddbd972	-0.10734834
93	0xbddd086a	-0.107926205
94	0xbd420988	-0.04737237
95	0xbde9f7f9	-0.1142425
96	0xbd14be90	-0.036314547
97	0xbd90474c	-0.07044849
98	0xbce4cddd	-0.027930195
99	0xbe2333d3	-0.15937738
100	0xbd82df8c	-0.063902944
101	0xbdbf9050	-0.09353697
102	0xbdd6fa03	-0.10496905
103	0xbda1dee7	-0.079038434
104	0xbdc51666	-0.09623413
105	0xbd78d8a3	-0.060753476
106	0xbcea50e2	-0.028603021
107	0xbd5e3503	-0.054249775
108	0xbe157d73	-0.14598636
109	0xbd3f3917	-0.046685304
110	0xbe0e418d	-0.13892193
111	0x3e8be8dc	0.27326095
112	0xbc6c8bbe	-0.014437614
113	0xbd7f47f6	-0.062324487
114	0x3db72d22	0.08944155
115	0xbd98d9af	-0.07463395
116	0xbb096376	-0.0020963824
117	0xbd7fd8ca	-0.062462606
118	0x3e273733	0.1632965
119	0x3e770a2a	0.24124971
120	0xbb6b1067	-0.003586793
121	0xbdd6b5ba	-0.1048388
122	0xbe1431c1	-0.14472105
123	0x3e8d75db	0.2762898
124	0xbd6520d3	-0.055939507
125	0xbd384dc6	-0.044996046
126	0xbde9f280	-0.11423206
127	0xbda01876	-0.078171656
128	0xbd55f6fa	-0.05223749
129	0xbd750782	-0.059821613
130	0xbdd80eb2	-0.10549678
131	0x3e881c89	0.2658427
132	0x3e5baf9e	0.21453711
133	0xbe2d7c3e	-0.16941926
134	0xbd8b3adf	-0.06798338
135	0xbd716701	-0.058936123
136	0xbb82f449	-0.003996406
137	0xbdf2eece	-0.11861955
138	0xbbdba904	-0.006703498
139	0x3eac3237	0.3363206
140	0xbda8331a	-0.08212872
141	0xbd0fa68a	-0.035070933
142	0xbc2f7e9c	-0.010711338
143	0xbd4ff5a4	-0.05077137
144	0xbcbc8511	-0.02301267
145	0x3dec1539	0.115274854
146	0xbd6dc44a	-0.058048524
147	0xbd1771cf	-0.03697377
148	0x3c551c6c	0.013007265
149	0xbd5db171	-0.0541243
150	0xbd749b4d	-0.05971842
151	0x3ded12ed	0.115758754
152	0xbd963ce8	-0.07335836
153	0xbde12e1e	-0.10995124
154	0xbe2b438d	-0.16724987
155	0xbbd50b99	-0.0065016267
156	0x3c9b934b	0.018991133
157	0xbe20f39d	-0.15717931
158	0xbb0628f5	-0.002047119
159	0xbdc31e2e	-0.09527241
160	0x3ea08e15	0.313584
161	0xbdcfd721	-0.101484545
162	0x3d8f02a3	0.06982925
163	0xbdb9d65a	-0.090740874
164	0xbdacd571	-0.08439148
165	0xbdf50b9f	-0.11965107
166	0x3e5fb67d	0.21846958
167	0xbd018ee0	-0.031630397
168	0xbdbe443e	-0.0929036
169	0xbd944da4	-0.07241371
170	0xbd8d1241	-0.06888247
171	0x3bbfebcc	0.0058569666
172	0xbda4307e	-0.08017062
173	0x3ecb1f59	0.39672354
174	0xbd969318	-0.07352275
175	0xbd943b1e	-0.07237838
176	0x3d44ed43	0.048077833
177	0xbc23eddc	-0.010005441
178	0xbe2739b8	-0.16330612
179	0xbd17788b	-0.036980193
180	0xbddef37f	-0.10886287
181	0xbdbe8032	-0.09301795
182	0xbdb8c47c	-0.090218514
183	0xbb837e6a	-0.0040128725
184	0xbe1b7a5c	-0.15183395
185	0xbdf4f978	-0.11961645
186	0xbd91e6e4	-0.07124117
187	0xbb89ef2d	-0.00420942
188	0xbd20eb03	-0.039286625
189	0xbcaf4188	-0.021393552
190	0x3dd74f94	0.10513225
191	0xbdf31478	-0.118691385
192	0xbb7198c0	-0.0036864728
193	0x3ec220f0	0.37915754
194	0xbe55d99f	-0.20883797
195	0xbdd7b5cf	-0.10532724
196	0xbddfdcc9	-0.10930783
197	0xbe02b28b	-0.12763421
198	0xbdbeea7e	-0.093220696
199	0xbdacb825	-0.0843356

l2.weight f4 [120, 200]
0	0xbdb5d9be	-0.08879422
1	0xbca754b0	-0.020426124
2	0xbd04ca44	-0.032419458
3	0xbd2c79f7	-0.042108502
4	0xbd8ff31f	-0.070287935
5	0x3c5942d6	0.013260564
6	0xbd6c15e5	-0.057638068
7	0xbd505154	-0.05085881
8	0xbbeb7bb0	-0.0071863756
9	0xbd15ab8a	-0.036540546
10	0xbcc8bede	-0.024505075
11	0xbe0bd745	-0.13656338
12	0x3d84f27f	0.06491565
13	0xbd0ebb36	-0.034846507
14	0xbd178d75	-0.03700014
15	0xbd1a561f	-0.037679788
16	0xbd0d9391	-0.03456456
17	0xbcc71650	-0.024302632
18	0x3cac401a	0.02102666
19	0x3d633fff	0.055480953
20	0x3c590ffa	0.013248438
21	0xbc9994e8	-0.018747762
22	0x3d5ddd8c	0.05416636
23	0xbdbd1ea6	-0.09234361
24	0xbcb9a262	-0.022660438
25	0xbd818d96	-0.063258335
26	0xbda94e7c	-0.08266923
27	0x3d357b52	0.04430706
28	0x3cac80dc	0.021057539
29	0xbd85ddea	-0.065364674
30	0xbccc1efc	-0.024917118
31	0xbc7a1a07	-0.015264994
32	0xbe3147a7	-0.1731249
33	0xbd5c5d8c	-0.05380015
34	0xbd0b3604	-0.03398706
35	0xbd764651	-0.060125653
36	0x3cb9b0fc	0.0226674
37	0xbdfa17e2	-0.122115865
38	0xbce4bd71	-0.027922364
39	0x3d81d2a3	0.06339004
40	0xbd7986a5	-0.060919423
41	0xbcd1a234	-0.02559004
42	0xbd663b62	-0.056208976
43	0x3cef328e	0.029198911
44	0xbd0c5978	-0.03426501
45	0xbbe6d2f0	-0.0070441887
46	0x3d482630	0.048864543
47	0x3d71c573	0.059026193
48	0x3c721f7a	0.014778012
49	0x3d351bb8	0.044215888
50	0x3d6d1d67	0.05788937
51	0xbd44d008	-0.048049957
52	0x3d19d46e	0.037556104
53	0x3cea6faf	0.028617708
54	0xbb8e3076	-0.004339273
55	0xbd677dce	-0.05651646
56	0x3d31cf2d	0.04341047
57	0x3c1c1991	0.00952758
58	0xbcfa4a49	-0.030553
59	0x3d25f4f5	0.040516812
60	0x3d210c98	0.03931865
61	0xbc3d0bb2	-0.011538433
62	0xbd121eda	-0.035673954
63	0xbd89148c	-0.06693372
64	0xbd69b11c	-0.05705367
65	0x3d566f7f	0.052352425
66	0xbe115f6a	-0.14196554
67	0x3d710d12	0.058850355
68	0x3d10e65e	0.035375945
69	0x3d188788	0.037238628
70	0xbbf114f9	-0.0073572365
71	0xbcd679a7	-0.026181055
72	0xbd89cd76	-0.06728642
73	0xbd5a7814	-0.05333717
74	0xbb0b4ff5	-0.0021257375
75	0xbd87462d	-0.06605182
76	0xbd649380	-0.05580473
77	0xbdc70dac	-0.097194046
78	0x3d078764	0.033088103
79	0xbd83778d	-0.06419287
80	0xbd5045fe	-0.050848
81	0x3d8470ca	0.06466825
82	0xbcd78a4f	-0.026311068
83	0xbcc0c216	-0.023530047
84	0xbd609873	-0.054832887
85	0x3cb86578	0.022509322
86	0x3c8fb850	0.017543942
87	0x3d17d3df	0.03706729
88	0xbcab4a14	-0.020909347
89	0xbd247b2b	-0.040156525
90	0xbd5391f6	-0.05165287
91	0xbd934d8f	-0.071925275
92	0xbd8a81bb	-0.067630254
93	0xbd79a934	-0.06095238
94	0x3ad577fb	0.0016286367
95	0x3d640e73	0.055677842
96	0x3ca3b712	0.019984756
97	0x3b74e841	0.003736988
98	0xbd1dd5f2	-0.038534112
99	0x3c64202f	0.013923689
100	0xbd4dfff2	-0.050292917
101	0x3c08bd06	0.008345848
102	0x3d766396	0.060153566
103	0x3c962278	0.018326983
104	0xbd024b89	-0.031810317
105	0x3d5b42e0	0.053530574
106	0x3d084ea0	0.033278108
107	0x3cfc740a	0.03081705
108	0xbd089595	-0.033345778
109	0xbd946055	-0.072449364
110	0x3d947a95	0.07249943
111	0x3d1ef36e	0.03880637
112	0x3cf52415	0.029924432
113	0xbd5ad875	-0.053429086
114	0x3d0edcc1	0.034878496
115	0xbd6f57d9	-0.058433387
116	0xbd1e7fbb	-0.038696032
117	0xbd736023	-0.059417855
118	0xbdc41a61	-0.09575344
119	0x3d0894ad	0.033344913
120	0x3d76c1d1	0.06024343
121	0xbd7b21f3	-0.061311673
122	0xbd77685b	-0.060402256
123	0x3d110b80	0.035411358
124	0x3cf6004c	0.030029438
125	0x3d4cb562	0.049977668
126	0x3ca63998	0.020291135
127	0xbd419c7a	-0.04726837
128	0xbd44e10f	-0.048066195
129	0x3e239629	0.1597525
130	0x3d8d9271	0.06912697
131	0x3d004d18	0.031323522
132	0x3d636957	0.05552038
133	0xbd915e37	-0.07098048
134	0xbd493005	-0.04911806
135	0x3d6fac73	0.05851407
136	0x3ca3dfdb	0.020004204
137	0xbd4f8d4b	-0.050671857
138	0x3a6b5d12	0.0008978407
139	0x3d665862	0.056236632
140	0xbd139834	-0.036033824
141	0xbd07b237	-0.033128943
142	0xbd07bd92	-0.033139773
143	0xbd96c1a9	-0.073611565
144	0xba469be4	-0.000757633
145	0xbca099f4	-0.01960466
146	0x3d2fafad	0.042892147
147	0xbd62e3bd	-0.05539297
148	0xbe105139	-0.14093484
149	0x3cb2fbd2	0.021848593
150	0xbbeaab04	-0.0071615
151	0xbc20c928	-0.009813584
152	0x3d2e6162	0.04257334
153	0xbbf6ec8f	-0.007535524
154	0xbcdec053	-0.027191317
155	0xbd079459	-0.03310046
156	0x3d6fdd1e	0.058560483
157	0xbb290825	-0.0025792208
158	0x3d2d3a1e	0.042291753
159	0xbd42c0cf	-0.047547158
160	0xbd3b5ffa	-0.045745827
161	0xbc82ef96	-0.015983384
162	0xbd30682d	-0.0430681
163	0xbd45ef00	-0.04832363
164	0xbd0f1d4f	-0.03494006
165	0xbdc11d6b	-0.09429439
166	0xbd2d04d5	-0.042240936
167	0xbb861da0	-0.004092887
168	0xbbf4fed4	-0.007476667
169	0x3cf874a9	0.030329065
170	0xbc8e36a4	-0.017360039
171	0xbb72f326	-0.0037071197
172	0xbdd15125	-0.10220555
173	0xbd4f7945	-0.05065276
174	0x3cf8e4b9	0.030382501
175	0x3d446a24	0.047952786
176	0x3d4c9800	0.049949646
177	0x3d1ecaff	0.03876781
178	0x3ce252e4	0.027627416
179	0xbd7ae82c	-0.061256573
180	0x3d061422	0.032734044
181	0xbd7e07d0	-0.06201917
182	0x3cefb27d	0.029259915
183	0x3d1c0688	0.038092166
184	0x3b1fbd62	0.0024374356
185	0x3c90d664	0.017680354
186	0xbd94e328	-0.07269889
187	0xbe1ad78d	-0.15121289
188	0xbc28c734	-0.0103014
189	0xbd3a023d	-0.04541229
190	0xbd61a492	-0.055088587
191	0x37e66000	2.746284e-05
192	0xbd2411b8	-0.04005596
193	0xbd89da2d	-0.06731067
194	0x3b87de48	0.004146371
195	0xbd239e6f	-0.039946016
196	0xbd3309a9	-0.043710385
197	0xbde30f2d	-0.11086879
198	0xbc0e7e68	-0.00869713
199	0xbd505f12	-0.050871916
200	0x3d2d1f9c	0.042266473
201	0xbd245e00	-0.040128708
202	0x3c7f144e	0.015568806
203	0x3d185dd1	0.037198845
204	0xbe0cbb8f	-0.13743423
205	0xbcc3208a	-0.023819227
206	0x3b86c25d	0.0041125254
207	0x3c271d41	0.010199846
208	0xbc795335	-0.015217592
209	0x3d3cb803	0.046073925
210	0x3cd8f534	0.02648411
211	0xbe2b0e62	-0.16704705
212	0xbd2e7b97	-0.042598333
213	0xbd8181de	-0.06323598
214	0xbd356f17	-0.044295397
215	0x3d1fb666	0.038992308
216	0x3d767ede	0.060179584
217	0xbbea4ee0	-0.007150516
218	0xbdca5cf3	-0.0988101
219	0xbd905d2e	-0.070490226
220	0xbd9f8a43	-0.07790043
221	0xbc379217	-0.011204264
222	0xbd8b34f7	-0.067972116
223	0xbdff110e	-0.12454425
224	0xbc218b3e	-0.009859858
225	0xbd8b8a7e	-0.06813525
226	0xbd7f2a45	-0.06229617
227	0xbd5809b0	-0.052743614
228	0x3b545660	0.0032400116
229	0xbc31fe84	-0.010863904
230	0xbd6e7260	-0.058214545
231	0x3d8705e0	0.065929174
232	0xbc0b1be1	-0.008490534
233	0x3c06109f	0.008182674
234	0x3c2273d6	0.009915313
235	0x3d18cc2e	0.037304096
236	0xbd8e4063	-0.069458745
237	0xbd0f2c86	-0.03495457
238	0xbd68b0d3	-0.056809258
239	0x3cfa6283	0.030564552
240	0x3d4c85b9	0.049932215
241	0x3d11ac78	0.03556487
242	0xbd973fd6	-0.073852226
243	0xbb9ce13a	-0.0047875913
244	0x3d819b97	0.063285045
245	0x3cd032bb	0.025414815
246	0x3a7561e0	0.0009360593
247	0xbd74d094	-0.059769228
248	0x3d127ffd	0.03576659
249	0xbc294d6e	-0.010333402
250	0x3d2d9b44	0.0423844
251	0xbd87087c	-0.06593415
252	0xbd2e62ef	-0.04257482
253	0xbd3dc7c0	-0.046333075
254	0x3c572d7a	0.013133401
255	0x3cac6982	0.021046404

l2.bias f4 [120]
0	0xbe3c16bf	-0.18368052
1	0xbe233c15	-0.15940888
2	0xbdbeb792	-0.09312357
3	0xbe29840d	-0.1655428
4	0xbe38582b	-0.18002383
5	0xbe5c649b	-0.21522753
6	0x4038dddb	2.888541
7	0x4058d28e	3.3878512
8	0xbe2b6991	-0.16739489
9	0xbe214892	-0.1575034
10	0xbe7974e1	-0.24360992
11	0xbe2b6fda	-0.16741887
12	0x3d8eec3c	0.06978652
13	0xbdcfb078	-0.101410806
14	0x3e9446fb	0.28960404
15	0xbd98a1ed	-0.0745276
16	0x3ed3e8bc	0.413885
17	0xbcf0264a	-0.029315133
18	0x3e1627c7	0.14663611
19	0xbe1e7633	-0.15474777
20	0xbe10944b	-0.1411907
21	0xbda789b3	-0.08180561
22	0xbe319243	-0.1734095
23	0xbee13545	-0.43985954
24	0xbe0310a4	-0.12799317
25	0xbe43f0d0	-0.19134831
26	0xbe3e4294	-0.18580085
27	0xbe6adac6	-0.22935018
28	0xbd98129d	-0.07425425
29	0xbe1d1dbf	-0.15343378
30	0xbdce787f	-0.100815766
31	0xbcc8ba4d	-0.024502898
32	0x3ec41ea3	0.38304624
33	0xbe100f86	-0.14068422
34	0xbeaad2f6	-0.33364075
35	0xbe04ccf0	-0.12968802
36	0xbe113036	-0.14178547
37	0xbdf5334d	-0.119726755
38	0x403c801b	2.945319
39	0xbe144e03	-0.14482884
40	0xbe5d0ba3	-0.2158647
41	0xbe0b4800	-0.13601685
42	0xbe0f0ac2	-0.13968948
43	0xbd4d687e	-0.05014848
44	0x3cab041d	0.020875985
45	0xbd2c4347	-0.04205635
46	0xbe7bf865	-0.24606474
47	0xbe5c5ff5	-0.2152098
48	0xbec194b2	-0.37808758
49	0xbe47de3a	-0.19518366
50	0xbe165199	-0.14679565
51	0xbeaf43d6	-0.34231442
52	0xbddea189	-0.10870654
53	0xbe4a6406	-0.19764718
54	0xbe5877fe	-0.21139523
55	0xbe3e97db	-0.18612616
56	0xbd5667a1	-0.052344922
57	0xbe9bde62	-0.30443102
58	0x401d98a2	2.462441
59	0xbe805a4b	-0.25068888
60	0xbe0251e5	-0.12726553
61	0xbe238fb2	-0.15972784
62	0xbd7ca41a	-0.061679937
63	0xbe6c485b	-0.23074476
64	0xbdeb172e	-0.114790305
65	0xbd4fd6fe	-0.050742142
66	0xbdc813d7	-0.09769409
67	0xbddf255d	-0.10895798
68	0xbedf3ea3	-0.43602476
69	0xbdf73cab	-0.12072118
70	0xbd487e28	-0.048948437
71	0x3d8d023f	0.06885194
72	0xbe0b291d	-0.13589902
73	0xbe815fe8	-0.25268483
74	0xbdfa95a6	-0.122355744
75	0xbe3e8bb9	-0.18607987
76	0x3ed0541d	0.40689173
77	0xbea9cfab	-0.3316625
78	0x3dc3ec62	0.09566571
79	0xbdce7938	-0.100817144
80	0xbddb5d68	-0.10711175
81	0xbebff4e7	-0.37491533
82	0xbec2cb9b	-0.38045964
83	0x3d8d82f8	0.06909746
84	0xbec152c9	-0.37758473
85	0xbe0115ee	-0.12606022
86	0xbe0a870d	-0.1352808
87	0xbdd78a8b	-0.10524472
88	0xbe8c83e7	-0.27444384
89	0xbe877122	-0.264535
90	0xbe2cd4d1	-0.16878058
91	0x37beccb4	2.2745087e-05
92	0x3eceab46	0.40365046
93	0x3ec0dd5e	0.3766889
94	0xbda0ae3f	-0.07845735
95	0xbde73166	-0.11288719
96	0x3c4ad070	0.012378797
97	0xbd6f6b00	-0.058451653
98	0xbc65789d	-0.014005807
99	0xbecf2020	-0.40454197
100	0xbdbf833a	-0.09351201
101	0xbe641900	-0.22275162
102	0xbe36f939	-0.17868508
103	0x3e9af14f	0.3026223
104	0xbcf23e9a	-0.029570866
105	0xbda219ef	-0.07915103
106	0xbdc93693	-0.09824862
107	0xbe01b582	-0.12666896
108	0xbe21d718	-0.15804708
109	0xbe2a1c14	-0.16612273
110	0x3c9f7805	0.01946641
111	0xbe40d681	-0.18831827
112	0x3f2c51f7	0.6731257
113	0xbe319857	-0.1734327
114	0xbe3d17bf	-0.1846609
115	0xbdf66cda	-0.120324805
116	0xbe072976	-0.1319941
117	0xbe267229	-0.16254486
118	0xbdbaecf4	-0.091272265
119	0xbdda496b	-0.106585346

l3.weight f4 [81, 120]
0	0xbe07cfc9	-0.13262857
1	0xbddd2e3c	-0.10799834
2	0xbe9d8938	-0.30768752
3	0xbdb270bd	-0.08712909
4	0xbd7795d3	-0.060445618
5	0xbd03226d	-0.032015253
6	0xbfd10ac0	-1.6331406
7	0xbf955a79	-1.1668235
8	0xbe4f5014	-0.20245391
9	0x3d5d142b	0.05397431
10	0xbe9f0f19	-0.31066206
11	0xbdcca1ab	-0.09991773
12	0xbf061fc0	-0.52392197
13	0xbe124284	-0.14283186
14	0xbf26689b	-0.65003365
15	0xbda90a29	-0.08253891
16	0xbfe0c8b7	-1.7561253
17	0xbdb0001d	-0.085937716
18	0xbfcff2ca	-1.6245968
19	0x3d3129ef	0.04325288
20	0xbd23800b	-0.039917033
21	0xbe260e7c	-0.16216463
22	0xbda20772	-0.07911576
23	0xbd4b5b90	-0.049647868
24	0xbd8c9eee	-0.06866251
25	0xbd8498ad	-0.06474433
26	0xbcd4c8ed	-0.025974715
27	0xbef93eda	-0.48680764
28	0xbd868406	-0.0656815
29	0xbde208d6	-0.110368416
30	0xbe0b98ac	-0.13632458
31	0xbd87a68a	-0.06623562
32	0xc00cdd18	-2.2009945
33	0xbe6d0296	-0.23145518
34	0xbe99b12c	-0.30017984
35	0xbda20caf	-0.079125755
36	0xbfe241db	-1.7676347
37	0x3b95eea0	0.0045755655
38	0xc010173f	-2.2514188
39	0xbcebf4d3	-0.028803265
40	0x3b4f5ec5	0.003164218
41	0xbd8894c7	-0.06669002
42	0xbd7ca0d7	-0.061676826
43	0xbe2c2c77	-0.16813837
44	0xbfaa3339	-1.3296882
45	0xbe73d615	-0.23812135
46	0xbeac7629	-0.336839
47	0x3d3a3cb2	0.04546804
48	0xbeb78bd4	-0.35848868
49	0xbe1d29e2	-0.15348008
50	0xbea4f87f	-0.32220837
51	0xbedd4d89	-0.43223217
52	0xbcd73e72	-0.026274893
53	0xbe9ad3cb	-0.3023971
54	0xbf2917c4	-0.6605189
55	0xbca0abb2	-0.01961312
56	0x3d23adf7	0.039960828
57	0xbe9cdf8b	-0.306393
58	0xbe403c17	-0.18772922
59	0xbd63f371	-0.055652086
60	0x3caa005d	0.020752126
61	0xbe23b556	-0.15987143
62	0xbd212790	-0.03934437
63	0xbef803e8	-0.4844048
64	0xbb590fb2	-0.0033120927
65	0xbddc9bcb	-0.10771903
66	0xbc6afa2e	-0.014341874
67	0x3db0e4eb	0.08637413
68	0xbe8c0221	-0.27345374
69	0x3cdaa52f	0.026690094
70	0x3d1f6a50	0.038919747
71	0x3d64e489	0.05588201
72	0xbd0a6902	-0.03379155
73	0xbddcd96d	-0.10783658
74	0xbe43c597	-0.19118343
75	0xbdeba0ca	-0.115052775
76	0xc050f065	-3.2646725
77	0xbead8005	-0.33886734
78	0xbed5c22f	-0.41749713
79	0xbe07bb5c	-0.13255066
80	0xbdbd663e	-0.09248017
81	0xbef2c606	-0.47416705
82	0xbf08f4ed	-0.5349873
83	0xbf52a2df	-0.8227977
84	0xbf09544a	-0.5364424
85	0xbdd8e21c	-0.10590002
86	0xbcd9bea0	-0.026580155
87	0x3c5b8703	0.0133988885
88	0xbf00d2a7	-0.5032143
89	0xbeecbdbb	-0.46238503
90	0x3d1a416f	0.03766006
91	0xbfc745dc	-1.5568194
92	0xbed98805	-0.42486587
93	0xbfca6609	-1.5812389
94	0xbdeae823	-0.11470058
95	0x3b55f1b1	0.003264528
96	0xbf0a041c	-0.5391252
97	0xbc6f916a	-0.014622072
98	0x3d4b55d3	0.049642395
99	0xbea56efb	-0.32311234
100	0xbf0193c7	-0.50616115
101	0xbe595e1b	-0.21227305
102	0xbd435901	-0.047692303
103	0xbee15804	-0.44012463
104	0x3c832879	0.01601051
105	0x3a880120	0.0010376312
106	0xbf115ebc	-0.5678518
107	0xbcb07ef4	-0.021544911
108	0xbddeda0d	-0.10881434
109	0xbddab4da	-0.10679026
110	0xbf560697	-0.83603805
111	0xbe8c7fbf	-0.27441213
112	0xbfb74342	-1.43174
113	0x3d626836	0.055275165
114	0xbea66389	-0.32497814
115	0x3ceacdda	0.02866261
116	0xbe9cfc07	-0.30661032
117	0xbcd34822	-0.025791232
118	0x3c074f40	0.008258641
119	0xbc2661aa	-0.010155121
120	0x3c262038	0.0101395175
121	0xbd308593	-0.043096136
122	0xbf897e3a	-1.0741646
123	0xbd5df272	-0.054186292
124	0xbd8c2c98	-0.06844443
125	0xbe036c81	-0.1283436
126	0xbf592b99	-0.8483215
127	0xbed14071	-0.40869477
128	0xbe7f1aff	-0.24912642
129	0xbb5130e8	-0.003192002
130	0xbee8cc83	-0.4546853
131	0xbd4fd1a2	-0.05073703
132	0xbee4d433	-0.44693145
133	0xbd605550	-0.05476886
134	0xbf2416eb	-0.6409747
135	0xbd9550c7	-0.07290798
136	0xbfba75dd	-1.4567219
137	0xbd654ef4	-0.0559835
138	0xbfc14ed4	-1.5102181
139	0xbcf735e7	-0.03017707
140	0xbcd60f49	-0.026130335
141	0xbde5cff7	-0.11221307
142	0xbd8aa96e	-0.067705974
143	0xbe390f7d	-0.18072315
144	0xbd859d23	-0.06524112
145	0xbde6a549	-0.112619944
146	0x3b19f628	0.0023492668
147	0xbe652270	-0.22376418
148	0x3c229507	0.009923226
149	0x3d706433	0.058689307
150	0xbdfdd5ed	-0.12394319
151	0xbd7c9710	-0.061667502
152	0xbfbf7828	-1.4958544
153	0xbcf50d0f	-0.029913453
154	0xbe435c95	-0.19078286
155	0xbe1387fa	-0.1440734
156	0xbfc10c39	-1.5081855
157	0xbd9bd33e	-0.076086506
158	0xc0627301	-3.5382693
159	0xbd04d4da	-0.032429554
160	0x3d47cf05	0.048781414
161	0x3d48a336	0.048983775
162	0xbc2f8069	-0.010711768
163	0xbd97b29b	-0.07407113
164	0xbea76631	-0.32695153
165	0xbe4a1fdf	-0.1973872
166	0xbed14099	-0.40869597
167	0xbd8e0d98	-0.069361866
168	0xbe198ce9	-0.14995159
169	0xbd9a0d40	-0.075220585
170	0x3d345058	0.044021934
171	0xbd3c33b4	-0.045947745
172	0x3d44fcd7	0.04809269
173	0xbeb2e441	-0.3493977
174	0xbf4cbe81	-0.79978186
175	0x3d8f70d3	0.070039414
176	0xbc297831	-0.010343597
177	0xbe86bfef	-0.2631831
178	0x3d1cf0d1	0.038315598
179	0xbacf6cf3	-0.0015825316
180	0x3d932795	0.07185284
181	0x3d0deda5	0.034650464
182	0xbd40496a	-0.046945013
183	0xbefffc93	-0.49997386
184	0x3d860183	0.06543257
185	0xbdb08998	-0.08619994
186	0xbda1d6c1	-0.07902289
187	0xbda31943	-0.07963803
188	0xbed9c1db	-0.42530712
189	0x3d5a2a4e	0.053263
190	0xbda17892	-0.07884325
191	0xbd4a0fd0	-0.049331486
192	0x3d86a50b	0.06574448
193	0xbf5f48c6	-0.8722042
194	0xbe46c897	-0.19412456
195	0xbd0c3c76	-0.034237348
196	0xbff2b2d2	-1.8960822
197	0xbe003852	-0.12521484
198	0xbe2f5093	-0.1712058
199	0xbb750de3	-0.003739231
200	0xbdef626d	-0.11688695
201	0xbf001db1	-0.50045305
202	0xbe503835	-0.20333941
203	0xbf91bfb2	-1.1386626
204	0xbe3bd9d9	-0.18344821
205	0xbdce6cf4	-0.10079375
206	0xbc3c5454	-0.011494715
207	0xbcf50295	-0.029908458
208	0xbe241293	-0.1602271
209	0xbe9ca235	-0.30592504
210	0xbdc1c7ee	-0.09461962
211	0xbf76d7ab	-0.96422833
212	0xbf90eda3	-1.1322521
213	0xbfb5b5ca	-1.4196103
214	0x3befce6c	0.0073183086
215	0xbd3fb6bc	-0.04680513
216	0xbed265a4	-0.4109317
217	0x3d1dd1a9	0.038530026
218	0x3d62337a	0.055224873
219	0xbf2fe0d2	-0.68702424
220	0xbeb7ce78	-0.3589971
221	0xbe88cd65	-0.26719204
222	0xbc78b2d7	-0.0151793575
223	0xbe0b3660	-0.13594961
224	0x3cf00d51	0.029303225
225	0xbcf25cf6	-0.029585343
226	0xbd60f92c	-0.05492513
227	0xbd8b2b88	-0.06795412
228	0xbdb3871f	-0.08766007
229	0x3c2c17a1	0.01050368
230	0x3d980a8a	0.07423885
231	0xbf0a9d50	-0.5414629
232	0xc00de9a3	-2.217385
233	0x3d470165	0.048585314
234	0xbe881628	-0.26579404
235	0xbda8fc4f	-0.08251249
236	0xbce13e01	-0.027495386
237	0x3d5e2bb8	0.054240912
238	0xbd0a4cbd	-0.03376459
239	0xbc1bae99	-0.009502077
240	0x3b567d64	0.0032728547
241	0xbd39f0df	-0.04539573
242	0xc0293909	-2.6441061
243	0xbdd30b54	-0.10304895
244	0xbe893464	-0.26797783
245	0xbe211ceb	-0.15733688
246	0xbeeebfea	-0.46630794
247	0xbf17e596	-0.59334695
248	0xbe9eb40c	-0.3099674
249	0x3cd4b98a	0.025967378
250	0xbf6cdb3f	-0.92522043
251	0xbd561dc4	-0.05227448
252	0xbf636925	-0.8883231
253	0xbe32af95	-0.17449792
254	0xbfa2c8db	-1.2717546
255	0x3bc0dbf7	0.005885597

l3.bias f4 [81]
0	0x3e3a3e6b	0.18187873
1	0x3f141dbe	0.5785788
2	0x3f28e42f	0.6597318
3	0x3f441d3c	0.7660711
4	0x3f4b43e5	0.79400474
5	0x3f3fd8a8	0.74939966
6	0x3f2e098a	0.67983305
7	0x3f02b698	0.51059866
8	0x3c530ac1	0.012880982
9	0x3f03b09c	0.5144136
10	0xbe5959b7	-0.2122563
11	0xbeac1815	-0.33612123
12	0xbe45e9e8	-0.1932751
13	0xbe72ea12	-0.23722103
14	0xbe3e795b	-0.18600981
15	0xbe5924fc	-0.21205515
16	0x3de69a90	0.11259949
17	0x3ee312ad	0.44350186
18	0x3f19cf52	0.6008197
19	0xbe9cb4a4	-0.30606568
20	0xbf3eda2c	-0.74551654
21	0xbf13fc68	-0.57807016
22	0xbef8b205	-0.48573318
23	0xbeb440c6	-0.35205668
24	0xbf0c867c	-0.54892707
25	0xbcbde5bf	-0.02318084
26	0x3f00eed7	0.5036444
27	0x3f1fcfa8	0.62426233
28	0xbed421d2	-0.41432053
29	0xbf3fb36e	-0.7488316
30	0xbee50180	-0.44727707
31	0xbec0331e	-0.37539
32	0xbecbab30	-0.39779043
33	0xbef36b01	-0.47542575
34	0xbdef22bf	-0.11676549
35	0x3f0fb889	0.56140953
36	0x3f2ce8bd	0.6754263
37	0xbe8c4f17	-0.2740409
38	0xbf2a450a	-0.66511595
39	0xbed90180	-0.42383957
40	0xbe87cbfd	-0.26522818
41	0xbea22283	-0.31666955
42	0xbf22f0d2	-0.6364871
43	0xbe095bd5	-0.13413937
44	0x3f087fea	0.5332018
45	0x3f2397f3	0.6390373
46	0xbe93a07d	-0.2883338
47	0xbeb87e5a	-0.360339
48	0xbebd7035	-0.3699967
49	0xbe9e650e	-0.30936474
50	0xbe907f76	-0.28222245
51	0xbed1e7fa	-0.40997297
52	0xbbe4885d	-0.0069742636
53	0x3f09ff53	0.5390522
54	0x3f1cf346	0.61308706
55	0xbde10fb4	-0.10989323
56	0xbed0dbcd	-0.40792695
57	0xbeaf7f9e	-0.34277052
58	0xbe9ffb45	-0.3124639
59	0xbe6f89e0	-0.23392439
60	0xbeaec383	-0.3413354
61	0x3e1e282d	0.15445013
62	0x3f01e95b	0.507467
63	0x3ef0d92e	0.47040695
64	0x3e383bbc	0.17991537
65	0x3e0efe68	0.13964236
66	0x3e100635	0.14064868
67	0x3d926b9e	0.071494326
68	0x3dcf0d92	0.1011001
69	0x3e79cc5a	0.2439436
70	0x3e99ff93	0.300778
71	0x3ebe8dd3	0.37217578
72	0x3e026832	0.1273506
73	0x3ee9d16f	0.45667598
74	0x3f109935	0.56483775
75	0x3f26733d	0.6501959
76	0x3f292eda	0.66087115
77	0x3f1d7228	0.61502314
78	0x3f031217	0.5119948
79	0x3ea6e7c6	0.32598704
80	0xbded1b64	-0.1157749
